…
Loaded split field in_degree from data/nasbench101/all_nasbench101_onehot_op.in_degree.pt (423624 samples)
Loaded split field out_degree from data/nasbench101/all_nasbench101_onehot_op.out_degree.pt (423624 samples)
Loaded split field dir_pe_rw from data/nasbench101/all_nasbench101_onehot_op.dir_pe_rw.pt (423624 samples)
Loaded split field dir_pe_ml from data/nasbench101/all_nasbench101_onehot_op.dir_pe_ml.pt (423624 samples)
Data cached to ./data/nasbench101/nasbench101_0.2/train_100_onehot_op_cached_data.pth
Loading cached data from ./data/nasbench101/nasbench101_0/val_100_onehot_op_cached_data.pth
Net(
  (op_embed): Linear(in_features=32, out_features=180, bias=True)
  (in_degree_embed): Linear(in_features=32, out_features=180, bias=True)
  (out_degree_embed): Linear(in_features=32, out_features=180, bias=True)
  (depth_embed): Linear(in_features=32, out_features=180, bias=True)
  (embed_proj): Linear(in_features=720, out_features=180, bias=True)
  (ml_encoder): MagLapEncoder(
    (f_elem): Sequential(
      (0): Linear(in_features=2, out_features=128, bias=True)
      (1): ReLU()
      (2): Linear(in_features=128, out_features=128, bias=True)
    )
    (norm): LayerNorm((128,), eps=1e-05, elementwise_affine=True)
    (attn): MultiheadAttention(
      (out_proj): NonDynamicallyQuantizableLinear(in_features=128, out_features=128, bias=False)
    )
    (drop): Dropout(p=0.15, inplace=False)
    (f_mix): Sequential(
      (0): Linear(in_features=640, out_features=128, bias=True)
      (1): ReLU()
      (2): Linear(in_features=128, out_features=180, bias=True)
    )
  )
  (encoder): TransformerEncoder(
    (layers): ModuleList(
      (0-9): 10 x GraphTransformerLayer(
        (norm1): LayerNorm((180,), eps=1e-05, elementwise_affine=True)
        (norm2): LayerNorm((180,), eps=1e-05, elementwise_affine=True)
        (self_attn): MultiHeadAttention(
          (qkv): Linear(in_features=180, out_features=540, bias=False)
          (proj): Linear(in_features=180, out_features=180, bias=False)
          (attn_dropout): Dropout(p=0.1, inplace=False)
          (resid_dropout): Dropout(p=0.1, inplace=False)
        )
        (ffn): BatchedMoEGraphFFN(
          (self_expert): Linear(in_features=180, out_features=720, bias=False)
          (in_expert): Linear(in_features=180, out_features=720, bias=False)
          (out_expert): Linear(in_features=180, out_features=720, bias=False)
          (gate): Sequential(
            (0): Linear(in_features=180, out_features=90, bias=False)
            (1): GELU(approximate='none')
            (2): Linear(in_features=90, out_features=3, bias=False)
          )
          (act): ReLU()
          (drop1): Dropout(p=0.1, inplace=False)
          (mix_norm): LayerNorm((720,), eps=1e-05, elementwise_affine=True)
          (fc2): Linear(in_features=720, out_features=180, bias=False)
          (drop2): Dropout(p=0.1, inplace=False)
        )
      )
    )
  )
  (post_norm): LayerNorm((180,), eps=1e-05, elementwise_affine=True)
  (att_pool): Linear(in_features=180, out_features=1, bias=True)
  (predictor): Linear(in_features=180, out_features=1, bias=True)
)
warmup steps: 600.0
2026-03-21 16:56:12 INFO: Saved tau curve to ./results/tau/20260321165612_model56_100.pdf
2026-03-21 16:56:12 INFO: Training Finished | Best KT 0.71844 | Best MAPE  0.02483362 | Best ErrB  0.67285156
2026-03-21 16:56:12 INFO: Building dataset test from .pth file
2026-03-21 16:57:10 INFO: Finish Loading dataset test; Number of sample groups: 423624; Total samples: 6354360; Time: 57.11s
…
